…
I0528 19:10:25.980526   174 net.cpp:323] The NetState phase (0) differed from the phase (1) specified by a rule in layer val-data
I0528 19:10:25.980573   174 net.cpp:323] The NetState phase (0) differed from the phase (1) specified by a rule in layer accuracy
I0528 19:10:25.980711   174 net.cpp:52] Initializing net from parameters:
state {
phase: TRAIN
}
layer {
name: "train-data"
type: "Data"
top: "data"
top: "label"
include {
phase: TRAIN
}
transform_param {
mirror: true
crop_size: 227
mean_file: "/opt/DIGITS/digits/jobs/20180528-185942-1129/mean.binaryproto"
}
data_param {
source: "/opt/DIGITS/digits/jobs/20180528-185942-1129/train_db"
batch_size: 128
backend: LMDB
}
}
layer {
name: "conv1"
type: "Convolution"
bottom: "data"
top: "conv1"
param {
lr_mult: 1
decay_mult: 1
}
param {
lr_mult: 2
decay_mult: 0
}
convolution_param {
num_output: 96
kernel_size: 11
stride: 4
weight_filler {
type: "gaussian"
std: 0.01
}
bias_filler {
type: "constant"
value: 0
}
}
}
layer {
name: "relu1"
type: "ReLU"
bottom: "conv1"
top: "conv1"
}
layer {
name: "norm1"
type: "LRN"
bottom: "conv1"
top: "norm1"
lrn_param {
local_size: 5
alpha: 0.0001
beta: 0.75
}
}
layer {
name: "pool1"
type: "Pooling"
bottom: "norm1"
top: "pool1"
pooling_param {
pool: MAX
kernel_size: 3
stride: 2
}
}
layer {
name: "conv2"
type: "Convolution"
bottom: "pool1"
top: "conv2"
param {
lr_mult: 1
decay_mult: 1
}
param {
lr_mult: 2
decay_mult: 0
}
convolution_param {
num_output: 256
pad: 2
kernel_size: 5
group: 2
weight_filler {
type: "gaussian"
std: 0.01
}
bias_filler {
type: "constant"
value: 0.1
}
}
}
layer {
name: "relu2"
type: "ReLU"
bottom: "conv2"
top: "conv2"
}
layer {
name: "norm2"
type: "LRN"
bottom: "conv2"
top: "norm2"
lrn_param {
local_size: 5
alpha: 0.0001
beta: 0.75
}
}
layer {
name: "pool2"
type: "Pooling"
bottom: "norm2"
top: "pool2"
pooling_param {
pool: MAX
kernel_size: 3
stride: 2
}
}
layer {
name: "conv3"
type: "Convolution"
bottom: "pool2"
top: "conv3"
param {
lr_mult: 1
decay_mult: 1
}
param {
lr_mult: 2
decay_mult: 0
}
convolution_param {
num_output: 384
pad: 1
kernel_size: 3
weight_filler {
type: "gaussian"
std: 0.01
}
bias_filler {
type: "constant"
value: 0
}
}
}
layer {
name: "relu3"
type: "ReLU"
bottom: "conv3"
top: "conv3"
}
layer {
name: "conv4"
type: "Convolution"
bottom: "conv3"
top: "conv4"
param {
lr_mult: 1
decay_mult: 1
}
param {
lr_mult: 2
decay_mult: 0
}
convolution_param {
num_output: 384
pad: 1
kernel_size: 3
group: 2
weight_filler {
type: "gaussian"
std: 0.01
}
bias_filler {
type: "constant"
value: 0.1
}
}
}
layer {
name: "relu4"
type: "ReLU"
bottom: "conv4"
top: "conv4"
}
layer {
name: "conv5"
type: "Convolution"
bottom: "conv4"
top: "conv5"
param {
lr_mult: 1
decay_mult: 1
}
param {
lr_mult: 2
decay_mult: 0
}
convolution_param {
num_output: 256
pad: 1
kernel_size: 3
group: 2
weight_filler {
type: "gaussian"
std: 0.01
}
bias_filler {
type: "constant"
value: 0.1
}
}
}
layer {
name: "relu5"
type: "ReLU"
bottom: "conv5"
top: "conv5"
}
layer {
name: "pool5"
type: "Pooling"
bottom: "conv5"
top: "pool5"
pooling_param {
pool: MAX
kernel_size: 3
stride: 2
}
}
layer {
name: "fc6"
type: "InnerProduct"
bottom: "pool5"
top: "fc6"
param {
lr_mult: 1
decay_mult: 1
}
param {
lr_mult: 2
decay_mult: 0
}
inner_product_param {
num_output: 4096
weight_filler {
type: "gaussian"
std: 0.005
}
bias_filler {
type: "constant"
value: 0.1
}
}
}
layer {
name: "relu6"
type: "ReLU"
bottom: "fc6"
top: "fc6"
}
layer {
name: "drop6"
type: "Dropout"
bottom: "fc6"
top: "fc6"
dropout_param {
dropout_ratio: 0.5
}
}
layer {
name: "fc7"
type: "InnerProduct"
bottom: "fc6"
top: "fc7"
param {
lr_mult: 1
decay_mult: 1
}
param {
lr_mult: 2
decay_mult: 0
}
inner_product_param {
num_output: 4096
weight_filler {
type: "gaussian"
std: 0.005
}
bias_filler {
type: "constant"
value: 0.1
}
}
}
layer {
name: "relu7"
type: "ReLU"
bottom: "fc7"
top: "fc7"
}
layer {
name: "drop7"
type: "Dropout"
bottom: "fc7"
top: "fc7"
dropout_param {
dropout_ratio: 0.5
}
}
layer {
name: "fc8"
type: "InnerProduct"
bottom: "fc7"
top: "fc8"
param {
lr_mult: 1
decay_mult: 1
}
param {
lr_mult: 2
decay_mult: 0
}
inner_product_param {
num_output: 3
weight_filler {
type: "gaussian"
std: 0.01
}
bias_filler {
type: "constant"
value: 0
}
}
}
layer {
name: "loss"
type: "SoftmaxWithLoss"
bottom: "fc8"
bottom: "label"
top: "loss"
}
I0528 19:10:25.980821   174 layer_factory.hpp:77] Creating layer train-data
I0528 19:10:25.981462   174 net.cpp:94] Creating Layer train-data
I0528 19:10:25.981479   174 net.cpp:409] train-data -> data
I0528 19:10:25.981523   174 net.cpp:409] train-data -> label
I0528 19:10:25.981549   174 data_transformer.cpp:25] Loading mean file from: /opt/DIGITS/digits/jobs/20180528-185942-1129/mean.binaryproto
I0528 19:10:25.982329   177 db_lmdb.cpp:35] Opened lmdb /opt/DIGITS/digits/jobs/20180528-185942-1129/train_db
I0528 19:10:25.992677   174 data_layer.cpp:78] ReshapePrefetch 128, 3, 227, 227
I0528 19:10:25.992732   174 data_layer.cpp:83] output data size: 128,3,227,227
I0528 19:10:26.165355   174 net.cpp:144] Setting up train-data
I0528 19:10:26.165398   174 net.cpp:151] Top shape: 128 3 227 227 (19787136)
I0528 19:10:26.165406   174 net.cpp:151] Top shape: 128 (128)
I0528 19:10:26.165411   174 net.cpp:159] Memory required for data: 79149056
I0528 19:10:26.165426   174 layer_factory.hpp:77] Creating layer conv1
I0528 19:10:26.165457   174 net.cpp:94] Creating Layer conv1
I0528 19:10:26.165467   174 net.cpp:435] conv1 <- data
I0528 19:10:26.165485   174 net.cpp:409] conv1 -> conv1
I0528 19:10:26.167631   174 net.cpp:144] Setting up conv1
I0528 19:10:26.167647   174 net.cpp:151] Top shape: 128 96 55 55 (37171200)
I0528 19:10:26.167654   174 net.cpp:159] Memory required for data: 227833856
I0528 19:10:26.167673   174 layer_factory.hpp:77] Creating layer relu1
I0528 19:10:26.167683   174 net.cpp:94] Creating Layer relu1
I0528 19:10:26.167690   174 net.cpp:435] relu1 <- conv1
I0528 19:10:26.167702   174 net.cpp:396] relu1 -> conv1 (in-place)
I0528 19:10:26.167722   174 net.cpp:144] Setting up relu1
I0528 19:10:26.167729   174 net.cpp:151] Top shape: 128 96 55 55 (37171200)
I0528 19:10:26.167734   174 net.cpp:159] Memory required for data: 376518656
I0528 19:10:26.167739   174 layer_factory.hpp:77] Creating layer norm1
I0528 19:10:26.167750   174 net.cpp:94] Creating Layer norm1
I0528 19:10:26.167757   174 net.cpp:435] norm1 <- conv1
I0528 19:10:26.167786   174 net.cpp:409] norm1 -> norm1
I0528 19:10:26.167838   174 net.cpp:144] Setting up norm1
I0528 19:10:26.167847   174 net.cpp:151] Top shape: 128 96 55 55 (37171200)
I0528 19:10:26.167852   174 net.cpp:159] Memory required for data: 525203456
I0528 19:10:26.167857   174 layer_factory.hpp:77] Creating layer pool1
I0528 19:10:26.167868   174 net.cpp:94] Creating Layer pool1
I0528 19:10:26.167873   174 net.cpp:435] pool1 <- norm1
I0528 19:10:26.167881   174 net.cpp:409] pool1 -> pool1
I0528 19:10:26.167919   174 net.cpp:144] Setting up pool1
I0528 19:10:26.167927   174 net.cpp:151] Top shape: 128 96 27 27 (8957952)
I0528 19:10:26.167932   174 net.cpp:159] Memory required for data: 561035264
I0528 19:10:26.167937   174 layer_factory.hpp:77] Creating layer conv2
I0528 19:10:26.167948   174 net.cpp:94] Creating Layer conv2
I0528 19:10:26.167953   174 net.cpp:435] conv2 <- pool1
I0528 19:10:26.167961   174 net.cpp:409] conv2 -> conv2
I0528 19:10:26.182165   174 net.cpp:144] Setting up conv2
I0528 19:10:26.182183   174 net.cpp:151] Top shape: 128 256 27 27 (23887872)
I0528 19:10:26.182188   174 net.cpp:159] Memory required for data: 656586752
I0528 19:10:26.182214   174 layer_factory.hpp:77] Creating layer relu2
I0528 19:10:26.182224   174 net.cpp:94] Creating Layer relu2
I0528 19:10:26.182229   174 net.cpp:435] relu2 <- conv2
I0528 19:10:26.182253   174 net.cpp:396] relu2 -> conv2 (in-place)
I0528 19:10:26.182265   174 net.cpp:144] Setting up relu2
I0528 19:10:26.182271   174 net.cpp:151] Top shape: 128 256 27 27 (23887872)
I0528 19:10:26.182276   174 net.cpp:159] Memory required for data: 752138240
I0528 19:10:26.182281   174 layer_factory.hpp:77] Creating layer norm2
I0528 19:10:26.182288   174 net.cpp:94] Creating Layer norm2
I0528 19:10:26.182294   174 net.cpp:435] norm2 <- conv2
I0528 19:10:26.182301   174 net.cpp:409] norm2 -> norm2
I0528 19:10:26.182341   174 net.cpp:144] Setting up norm2
I0528 19:10:26.182353   174 net.cpp:151] Top shape: 128 256 27 27 (23887872)
I0528 19:10:26.182358   174 net.cpp:159] Memory required for data: 847689728
I0528 19:10:26.182384   174 layer_factory.hpp:77] Creating layer pool2
I0528 19:10:26.182411   174 net.cpp:94] Creating Layer pool2
I0528 19:10:26.182421   174 net.cpp:435] pool2 <- norm2
I0528 19:10:26.182446   174 net.cpp:409] pool2 -> pool2
I0528 19:10:26.182495   174 net.cpp:144] Setting up pool2
I0528 19:10:26.182524   174 net.cpp:151] Top shape: 128 256 13 13 (5537792)
I0528 19:10:26.182533   174 net.cpp:159] Memory required for data: 869840896
I0528 19:10:26.182579   174 layer_factory.hpp:77] Creating layer conv3
I0528 19:10:26.182590   174 net.cpp:94] Creating Layer conv3
I0528 19:10:26.182615   174 net.cpp:435] conv3 <- pool2
I0528 19:10:26.182626   174 net.cpp:409] conv3 -> conv3
I0528 19:10:26.192620   174 net.cpp:144] Setting up conv3
I0528 19:10:26.192638   174 net.cpp:151] Top shape: 128 384 13 13 (8306688)
I0528 19:10:26.192644   174 net.cpp:159] Memory required for data: 903067648
I0528 19:10:26.192656   174 layer_factory.hpp:77] Creating layer relu3
I0528 19:10:26.192667   174 net.cpp:94] Creating Layer relu3
I0528 19:10:26.192672   174 net.cpp:435] relu3 <- conv3
I0528 19:10:26.192679   174 net.cpp:396] relu3 -> conv3 (in-place)
I0528 19:10:26.192690   174 net.cpp:144] Setting up relu3
I0528 19:10:26.192697   174 net.cpp:151] Top shape: 128 384 13 13 (8306688)
I0528 19:10:26.192701   174 net.cpp:159] Memory required for data: 936294400
I0528 19:10:26.192706   174 layer_factory.hpp:77] Creating layer conv4
I0528 19:10:26.192718   174 net.cpp:94] Creating Layer conv4
I0528 19:10:26.192739   174 net.cpp:435] conv4 <- conv3
I0528 19:10:26.192746   174 net.cpp:409] conv4 -> conv4
I0528 19:10:26.199803   174 net.cpp:144] Setting up conv4
I0528 19:10:26.199820   174 net.cpp:151] Top shape: 128 384 13 13 (8306688)
I0528 19:10:26.199826   174 net.cpp:159] Memory required for data: 969521152
I0528 19:10:26.199833   174 layer_factory.hpp:77] Creating layer relu4
I0528 19:10:26.199841   174 net.cpp:94] Creating Layer relu4
I0528 19:10:26.199847   174 net.cpp:435] relu4 <- conv4
I0528 19:10:26.199872   174 net.cpp:396] relu4 -> conv4 (in-place)
I0528 19:10:26.199882   174 net.cpp:144] Setting up relu4
I0528 19:10:26.199888   174 net.cpp:151] Top shape: 128 384 13 13 (8306688)
I0528 19:10:26.199893   174 net.cpp:159] Memory required for data: 1002747904
I0528 19:10:26.199898   174 layer_factory.hpp:77] Creating layer conv5
I0528 19:10:26.199908   174 net.cpp:94] Creating Layer conv5
I0528 19:10:26.199914   174 net.cpp:435] conv5 <- conv4
I0528 19:10:26.199923   174 net.cpp:409] conv5 -> conv5
I0528 19:10:26.208350   174 net.cpp:144] Setting up conv5
I0528 19:10:26.208367   174 net.cpp:151] Top shape: 128 256 13 13 (5537792)
I0528 19:10:26.208374   174 net.cpp:159] Memory required for data: 1024899072
I0528 19:10:26.208385   174 layer_factory.hpp:77] Creating layer relu5
I0528 19:10:26.208395   174 net.cpp:94] Creating Layer relu5
I0528 19:10:26.208400   174 net.cpp:435] relu5 <- conv5
I0528 19:10:26.208407   174 net.cpp:396] relu5 -> conv5 (in-place)
I0528 19:10:26.208421   174 net.cpp:144] Setting up relu5
I0528 19:10:26.208427   174 net.cpp:151] Top shape: 128 256 13 13 (5537792)
I0528 19:10:26.208432   174 net.cpp:159] Memory required for data: 1047050240
I0528 19:10:26.208437   174 layer_factory.hpp:77] Creating layer pool5
I0528 19:10:26.208446   174 net.cpp:94] Creating Layer pool5
I0528 19:10:26.208451   174 net.cpp:435] pool5 <- conv5
I0528 19:10:26.208456   174 net.cpp:409] pool5 -> pool5
I0528 19:10:26.208493   174 net.cpp:144] Setting up pool5
I0528 19:10:26.208500   174 net.cpp:151] Top shape: 128 256 6 6 (1179648)
I0528 19:10:26.208505   174 net.cpp:159] Memory required for data: 1051768832
I0528 19:10:26.208510   174 layer_factory.hpp:77] Creating layer fc6
I0528 19:10:26.208523   174 net.cpp:94] Creating Layer fc6
I0528 19:10:26.208529   174 net.cpp:435] fc6 <- pool5
I0528 19:10:26.208544   174 net.cpp:409] fc6 -> fc6
I0528 19:10:26.643195   174 net.cpp:144] Setting up fc6
I0528 19:10:26.643235   174 net.cpp:151] Top shape: 128 4096 (524288)
I0528 19:10:26.643254   174 net.cpp:159] Memory required for data: 1053865984
I0528 19:10:26.643266   174 layer_factory.hpp:77] Creating layer relu6
I0528 19:10:26.643280   174 net.cpp:94] Creating Layer relu6
I0528 19:10:26.643287   174 net.cpp:435] relu6 <- fc6
I0528 19:10:26.643297   174 net.cpp:396] relu6 -> fc6 (in-place)
I0528 19:10:26.643316   174 net.cpp:144] Setting up relu6
I0528 19:10:26.643322   174 net.cpp:151] Top shape: 128 4096 (524288)
I0528 19:10:26.643327   174 net.cpp:159] Memory required for data: 1055963136
I0528 19:10:26.643332   174 layer_factory.hpp:77] Creating layer drop6
I0528 19:10:26.643343   174 net.cpp:94] Creating Layer drop6
I0528 19:10:26.643348   174 net.cpp:435] drop6 <- fc6
I0528 19:10:26.643355   174 net.cpp:396] drop6 -> fc6 (in-place)
I0528 19:10:26.643380   174 net.cpp:144] Setting up drop6
I0528 19:10:26.643388   174 net.cpp:151] Top shape: 128 4096 (524288)
I0528 19:10:26.643393   174 net.cpp:159] Memory required for data: 1058060288
I0528 19:10:26.643399   174 layer_factory.hpp:77] Creating layer fc7
I0528 19:10:26.643409   174 net.cpp:94] Creating Layer fc7
I0528 19:10:26.643414   174 net.cpp:435] fc7 <- fc6
I0528 19:10:26.643422   174 net.cpp:409] fc7 -> fc7
I0528 19:10:26.841482   174 net.cpp:144] Setting up fc7
I0528 19:10:26.841521   174 net.cpp:151] Top shape: 128 4096 (524288)
I0528 19:10:26.841526   174 net.cpp:159] Memory required for data: 1060157440
I0528 19:10:26.841540   174 layer_factory.hpp:77] Creating layer relu7
I0528 19:10:26.841562   174 net.cpp:94] Creating Layer relu7
I0528 19:10:26.841568   174 net.cpp:435] relu7 <- fc7
I0528 19:10:26.841578   174 net.cpp:396] relu7 -> fc7 (in-place)
I0528 19:10:26.841595   174 net.cpp:144] Setting up relu7
I0528 19:10:26.841603   174 net.cpp:151] Top shape: 128 4096 (524288)
I0528 19:10:26.841606   174 net.cpp:159] Memory required for data: 1062254592
I0528 19:10:26.841611   174 layer_factory.hpp:77] Creating layer drop7
I0528 19:10:26.841620   174 net.cpp:94] Creating Layer drop7
I0528 19:10:26.841625   174 net.cpp:435] drop7 <- fc7
I0528 19:10:26.841672   174 net.cpp:396] drop7 -> fc7 (in-place)
I0528 19:10:26.841696   174 net.cpp:144] Setting up drop7
I0528 19:10:26.841702   174 net.cpp:151] Top shape: 128 4096 (524288)
I0528 19:10:26.841706   174 net.cpp:159] Memory required for data: 1064351744
I0528 19:10:26.841711   174 layer_factory.hpp:77] Creating layer fc8
I0528 19:10:26.841722   174 net.cpp:94] Creating Layer fc8
I0528 19:10:26.841727   174 net.cpp:435] fc8 <- fc7
I0528 19:10:26.841733   174 net.cpp:409] fc8 -> fc8
I0528 19:10:26.842628   174 net.cpp:144] Setting up fc8
I0528 19:10:26.842640   174 net.cpp:151] Top shape: 128 3 (384)
I0528 19:10:26.842645   174 net.cpp:159] Memory required for data: 1064353280
I0528 19:10:26.842653   174 layer_factory.hpp:77] Creating layer loss
I0528 19:10:26.842663   174 net.cpp:94] Creating Layer loss
I0528 19:10:26.842669   174 net.cpp:435] loss <- fc8
I0528 19:10:26.842674   174 net.cpp:435] loss <- label
I0528 19:10:26.842684   174 net.cpp:409] loss -> loss
I0528 19:10:26.842694   174 layer_factory.hpp:77] Creating layer loss
…
I0528 19:10:26.843297   174 solver.cpp:181] Creating test net (#0) specified by net file: train_val.prototxt
I0528 19:10:26.843338   174 net.cpp:323] The NetState phase (1) differed from the phase (0) specified by a rule in layer train-data
I0528 19:10:26.843472   174 net.cpp:52] Initializing net from parameters:
state {
phase: TEST
}
layer {
name: "val-data"
type: "Data"
top: "data"
top: "label"
include {
phase: TEST
}
transform_param {
crop_size: 227
mean_file: "/opt/DIGITS/digits/jobs/20180528-185942-1129/mean.binaryproto"
}
data_param {
source: "/opt/DIGITS/digits/jobs/20180528-185942-1129/val_db"
batch_size: 32
backend: LMDB
}
}
layer {
name: "conv1"
type: "Convolution"
bottom: "data"
top: "conv1"
param {
lr_mult: 1
decay_mult: 1
}
param {
lr_mult: 2
decay_mult: 0
}
convolution_param {
num_output: 96
kernel_size: 11
stride: 4
weight_filler {
type: "gaussian"
std: 0.01
}
bias_filler {
type: "constant"
value: 0
}
}
}
layer {
name: "relu1"
type: "ReLU"
bottom: "conv1"
top: "conv1"
}
layer {
name: "norm1"
type: "LRN"
bottom: "conv1"
top: "norm1"
lrn_param {
local_size: 5
alpha: 0.0001
beta: 0.75
}
}
layer {
name: "pool1"
type: "Pooling"
bottom: "norm1"
top: "pool1"
pooling_param {
pool: MAX
kernel_size: 3
stride: 2
}
}
layer {
name: "conv2"
type: "Convolution"
bottom: "pool1"
top: "conv2"
param {
lr_mult: 1
decay_mult: 1
}
param {
lr_mult: 2
decay_mult: 0
}
convolution_param {
num_output: 256
pad: 2
kernel_size: 5
group: 2
weight_filler {
type: "gaussian"
std: 0.01
}
bias_filler {
type: "constant"
value: 0.1
}
}
}
layer {
name: "relu2"
type: "ReLU"
bottom: "conv2"
top: "conv2"
}
layer {
name: "norm2"
type: "LRN"
bottom: "conv2"
top: "norm2"
lrn_param {
local_size: 5
alpha: 0.0001
beta: 0.75
}
}
layer {
name: "pool2"
type: "Pooling"
bottom: "norm2"
top: "pool2"
pooling_param {
pool: MAX
kernel_size: 3
stride: 2
}
}
layer {
name: "conv3"
type: "Convolution"
bottom: "pool2"
top: "conv3"
param {
lr_mult: 1
decay_mult: 1
}
param {
lr_mult: 2
decay_mult: 0
}
convolution_param {
num_output: 384
pad: 1
kernel_size: 3
weight_filler {
type: "gaussian"
std: 0.01
}
bias_filler {
type: "constant"
value: 0
}
}
}
layer {
name: "relu3"
type: "ReLU"
bottom: "conv3"
top: "conv3"
}
layer {
name: "conv4"
type: "Convolution"
bottom: "conv3"
top: "conv4"
param {
lr_mult: 1
decay_mult: 1
}
param {
lr_mult: 2
decay_mult: 0
}
convolution_param {
num_output: 384
pad: 1
kernel_size: 3
group: 2
weight_filler {
type: "gaussian"
std: 0.01
}
bias_filler {
type: "constant"
value: 0.1
}
}
}
layer {
name: "relu4"
type: "ReLU"
bottom: "conv4"
top: "conv4"
}
layer {
name: "conv5"
type: "Convolution"
bottom: "conv4"
top: "conv5"
param {
lr_mult: 1
decay_mult: 1
}
param {
lr_mult: 2
decay_mult: 0
}
convolution_param {
num_output: 256
pad: 1
kernel_size: 3
group: 2
weight_filler {
type: "gaussian"
std: 0.01
}
bias_filler {
type: "constant"
value: 0.1
}
}
}
layer {
name: "relu5"
type: "ReLU"
bottom: "conv5"
top: "conv5"
}
layer {
name: "pool5"
type: "Pooling"
bottom: "conv5"
top: "pool5"
pooling_param {
pool: MAX
kernel_size: 3
stride: 2
}
}
layer {
name: "fc6"
type: "InnerProduct"
bottom: "pool5"
top: "fc6"
param {
lr_mult: 1
decay_mult: 1
}
param {
lr_mult: 2
decay_mult: 0
}
inner_product_param {
num_output: 4096
weight_filler {
type: "gaussian"
std: 0.005
}
bias_filler {
type: "constant"
value: 0.1
}
}
}
layer {
name: "relu6"
type: "ReLU"
bottom: "fc6"
top: "fc6"
}
layer {
name: "drop6"
type: "Dropout"
bottom: "fc6"
top: "fc6"
dropout_param {
dropout_ratio: 0.5
}
}
layer {
name: "fc7"
type: "InnerProduct"
bottom: "fc6"
top: "fc7"
param {
lr_mult: 1
decay_mult: 1
}
param {
lr_mult: 2
decay_mult: 0
}
inner_product_param {
num_output: 4096
weight_filler {
type: "gaussian"
std: 0.005
}
bias_filler {
type: "constant"
value: 0.1
}
}
}
layer {
name: "relu7"
type: "ReLU"
bottom: "fc7"
top: "fc7"
}
layer {
name: "drop7"
type: "Dropout"
bottom: "fc7"
top: "fc7"
dropout_param {
dropout_ratio: 0.5
}
}
layer {
name: "fc8"
type: "InnerProduct"
bottom: "fc7"
top: "fc8"
param {
lr_mult: 1
decay_mult: 1
}
param {
lr_mult: 2
decay_mult: 0
}
inner_product_param {
num_output: 3
weight_filler {
type: "gaussian"
std: 0.01
}
bias_filler {
type: "constant"
value: 0
}
}
}
layer {
name: "accuracy"
type: "Accuracy"
bottom: "fc8"
bottom: "label"
top: "accuracy"
include {
phase: TEST
}
}
layer {
name: "loss"
type: "SoftmaxWithLoss"
bottom: "fc8"
bottom: "label"
top: "loss"
}
I0528 19:10:26.843600   174 layer_factory.hpp:77] Creating layer val-data
I0528 19:10:26.844030   174 net.cpp:94] Creating Layer val-data
I0528 19:10:26.844045   174 net.cpp:409] val-data -> data
I0528 19:10:26.844056   174 net.cpp:409] val-data -> label
I0528 19:10:26.844065   174 data_transformer.cpp:25] Loading mean file from: /opt/DIGITS/digits/jobs/20180528-185942-1129/mean.binaryproto
I0528 19:10:26.844709   183 db_lmdb.cpp:35] Opened lmdb /opt/DIGITS/digits/jobs/20180528-185942-1129/val_db
I0528 19:10:26.852577   174 data_layer.cpp:78] ReshapePrefetch 32, 3, 227, 227
I0528 19:10:26.852622   174 data_layer.cpp:83] output data size: 32,3,227,227
I0528 19:10:26.889830   174 net.cpp:144] Setting up val-data
I0528 19:10:26.889907   174 net.cpp:151] Top shape: 32 3 227 227 (4946784)
I0528 19:10:26.889914   174 net.cpp:151] Top shape: 32 (32)
I0528 19:10:26.889920   174 net.cpp:159] Memory required for data: 19787264
I0528 19:10:26.889955   174 layer_factory.hpp:77] Creating layer label_val-data_1_split
I0528 19:10:26.889986   174 net.cpp:94] Creating Layer label_val-data_1_split
I0528 19:10:26.889994   174 net.cpp:435] label_val-data_1_split <- label
I0528 19:10:26.890005   174 net.cpp:409] label_val-data_1_split -> label_val-data_1_split_0
I0528 19:10:26.890028   174 net.cpp:409] label_val-data_1_split -> label_val-data_1_split_1
I0528 19:10:26.890105   174 net.cpp:144] Setting up label_val-data_1_split
I0528 19:10:26.890115   174 net.cpp:151] Top shape: 32 (32)
I0528 19:10:26.890120   174 net.cpp:151] Top shape: 32 (32)
I0528 19:10:26.890126   174 net.cpp:159] Memory required for data: 19787520
I0528 19:10:26.890132   174 layer_factory.hpp:77] Creating layer conv1
I0528 19:10:26.890151   174 net.cpp:94] Creating Layer conv1
I0528 19:10:26.890156   174 net.cpp:435] conv1 <- data
I0528 19:10:26.890166   174 net.cpp:409] conv1 -> conv1
I0528 19:10:26.891469   174 net.cpp:144] Setting up conv1
I0528 19:10:26.891484   174 net.cpp:151] Top shape: 32 96 55 55 (9292800)
I0528 19:10:26.891489   174 net.cpp:159] Memory required for data: 56958720
I0528 19:10:26.891502   174 layer_factory.hpp:77] Creating layer relu1
I0528 19:10:26.891512   174 net.cpp:94] Creating Layer relu1
I0528 19:10:26.891518   174 net.cpp:435] relu1 <- conv1
I0528 19:10:26.891526   174 net.cpp:396] relu1 -> conv1 (in-place)
I0528 19:10:26.891536   174 net.cpp:144] Setting up relu1
I0528 19:10:26.891559   174 net.cpp:151] Top shape: 32 96 55 55 (9292800)
I0528 19:10:26.891564   174 net.cpp:159] Memory required for data: 94129920
I0528 19:10:26.891571   174 layer_factory.hpp:77] Creating layer norm1
I0528 19:10:26.891597   174 net.cpp:94] Creating Layer norm1
I0528 19:10:26.891602   174 net.cpp:435] norm1 <- conv1
I0528 19:10:26.891609   174 net.cpp:409] norm1 -> norm1
I0528 19:10:26.891680   174 net.cpp:144] Setting up norm1
I0528 19:10:26.891688   174 net.cpp:151] Top shape: 32 96 55 55 (9292800)
I0528 19:10:26.891693   174 net.cpp:159] Memory required for data: 131301120
I0528 19:10:26.891698   174 layer_factory.hpp:77] Creating layer pool1
I0528 19:10:26.891707   174 net.cpp:94] Creating Layer pool1
I0528 19:10:26.891712   174 net.cpp:435] pool1 <- norm1
I0528 19:10:26.891719   174 net.cpp:409] pool1 -> pool1
I0528 19:10:26.891752   174 net.cpp:144] Setting up pool1
I0528 19:10:26.891760   174 net.cpp:151] Top shape: 32 96 27 27 (2239488)
I0528 19:10:26.891765   174 net.cpp:159] Memory required for data: 140259072
I0528 19:10:26.891770   174 layer_factory.hpp:77] Creating layer conv2
I0528 19:10:26.891782   174 net.cpp:94] Creating Layer conv2
I0528 19:10:26.891786   174 net.cpp:435] conv2 <- pool1
I0528 19:10:26.891794   174 net.cpp:409] conv2 -> conv2
I0528 19:10:26.897521   174 net.cpp:144] Setting up conv2
I0528 19:10:26.897541   174 net.cpp:151] Top shape: 32 256 27 27 (5971968)
I0528 19:10:26.897559   174 net.cpp:159] Memory required for data: 164146944
I0528 19:10:26.897572   174 layer_factory.hpp:77] Creating layer relu2
I0528 19:10:26.897580   174 net.cpp:94] Creating Layer relu2
I0528 19:10:26.897585   174 net.cpp:435] relu2 <- conv2
I0528 19:10:26.897593   174 net.cpp:396] relu2 -> conv2 (in-place)
I0528 19:10:26.897603   174 net.cpp:144] Setting up relu2
I0528 19:10:26.897608   174 net.cpp:151] Top shape: 32 256 27 27 (5971968)
I0528 19:10:26.897614   174 net.cpp:159] Memory required for data: 188034816
I0528 19:10:26.897619   174 layer_factory.hpp:77] Creating layer norm2
I0528 19:10:26.897641   174 net.cpp:94] Creating Layer norm2
I0528 19:10:26.897647   174 net.cpp:435] norm2 <- conv2
I0528 19:10:26.897675   174 net.cpp:409] norm2 -> norm2
I0528 19:10:26.897747   174 net.cpp:144] Setting up norm2
I0528 19:10:26.897755   174 net.cpp:151] Top shape: 32 256 27 27 (5971968)
I0528 19:10:26.897760   174 net.cpp:159] Memory required for data: 211922688
I0528 19:10:26.897765   174 layer_factory.hpp:77] Creating layer pool2
I0528 19:10:26.897773   174 net.cpp:94] Creating Layer pool2
I0528 19:10:26.897778   174 net.cpp:435] pool2 <- norm2
I0528 19:10:26.897785   174 net.cpp:409] pool2 -> pool2
I0528 19:10:26.897816   174 net.cpp:144] Setting up pool2
I0528 19:10:26.897825   174 net.cpp:151] Top shape: 32 256 13 13 (1384448)
I0528 19:10:26.897830   174 net.cpp:159] Memory required for data: 217460480
I0528 19:10:26.897835   174 layer_factory.hpp:77] Creating layer conv3
I0528 19:10:26.897845   174 net.cpp:94] Creating Layer conv3
I0528 19:10:26.897853   174 net.cpp:435] conv3 <- pool2
I0528 19:10:26.897871   174 net.cpp:409] conv3 -> conv3
I0528 19:10:26.908599   174 net.cpp:144] Setting up conv3
I0528 19:10:26.908618   174 net.cpp:151] Top shape: 32 384 13 13 (2076672)
I0528 19:10:26.908624   174 net.cpp:159] Memory required for data: 225767168
I0528 19:10:26.908638   174 layer_factory.hpp:77] Creating layer relu3
I0528 19:10:26.908648   174 net.cpp:94] Creating Layer relu3
I0528 19:10:26.908654   174 net.cpp:435] relu3 <- conv3
I0528 19:10:26.908663   174 net.cpp:396] relu3 -> conv3 (in-place)
I0528 19:10:26.908674   174 net.cpp:144] Setting up relu3
I0528 19:10:26.908680   174 net.cpp:151] Top shape: 32 384 13 13 (2076672)
I0528 19:10:26.908685   174 net.cpp:159] Memory required for data: 234073856
I0528 19:10:26.908691   174 layer_factory.hpp:77] Creating layer conv4
I0528 19:10:26.908702   174 net.cpp:94] Creating Layer conv4
I0528 19:10:26.908709   174 net.cpp:435] conv4 <- conv3
I0528 19:10:26.908716   174 net.cpp:409] conv4 -> conv4
I0528 19:10:26.916198   174 net.cpp:144] Setting up conv4
I0528 19:10:26.916216   174 net.cpp:151] Top shape: 32 384 13 13 (2076672)
I0528 19:10:26.916223   174 net.cpp:159] Memory required for data: 242380544
I0528 19:10:26.916231   174 layer_factory.hpp:77] Creating layer relu4
I0528 19:10:26.916241   174 net.cpp:94] Creating Layer relu4
I0528 19:10:26.916247   174 net.cpp:435] relu4 <- conv4
I0528 19:10:26.916255   174 net.cpp:396] relu4 -> conv4 (in-place)
I0528 19:10:26.916266   174 net.cpp:144] Setting up relu4
I0528 19:10:26.916272   174 net.cpp:151] Top shape: 32 384 13 13 (2076672)
I0528 19:10:26.916278   174 net.cpp:159] Memory required for data: 250687232
I0528 19:10:26.916283   174 layer_factory.hpp:77] Creating layer conv5
I0528 19:10:26.916294   174 net.cpp:94] Creating Layer conv5
I0528 19:10:26.916301   174 net.cpp:435] conv5 <- conv4
I0528 19:10:26.916309   174 net.cpp:409] conv5 -> conv5
I0528 19:10:26.921344   174 net.cpp:144] Setting up conv5
I0528 19:10:26.921361   174 net.cpp:151] Top shape: 32 256 13 13 (1384448)
I0528 19:10:26.921367   174 net.cpp:159] Memory required for data: 256225024
I0528 19:10:26.921380   174 layer_factory.hpp:77] Creating layer relu5
I0528 19:10:26.921389   174 net.cpp:94] Creating Layer relu5
I0528 19:10:26.921396   174 net.cpp:435] relu5 <- conv5
I0528 19:10:26.921423   174 net.cpp:396] relu5 -> conv5 (in-place)
I0528 19:10:26.921434   174 net.cpp:144] Setting up relu5
I0528 19:10:26.921442   174 net.cpp:151] Top shape: 32 256 13 13 (1384448)
I0528 19:10:26.921447   174 net.cpp:159] Memory required for data: 261762816
I0528 19:10:26.921452   174 layer_factory.hpp:77] Creating layer pool5
I0528 19:10:26.921463   174 net.cpp:94] Creating Layer pool5
I0528 19:10:26.921469   174 net.cpp:435] pool5 <- conv5
I0528 19:10:26.921476   174 net.cpp:409] pool5 -> pool5
I0528 19:10:26.921533   174 net.cpp:144] Setting up pool5
I0528 19:10:26.921541   174 net.cpp:151] Top shape: 32 256 6 6 (294912)
I0528 19:10:26.921546   174 net.cpp:159] Memory required for data: 262942464
I0528 19:10:26.921552   174 layer_factory.hpp:77] Creating layer fc6
I0528 19:10:26.921562   174 net.cpp:94] Creating Layer fc6
I0528 19:10:26.921567   174 net.cpp:435] fc6 <- pool5
I0528 19:10:26.921576   174 net.cpp:409] fc6 -> fc6
I0528 19:10:27.333446   174 net.cpp:144] Setting up fc6
I0528 19:10:27.333523   174 net.cpp:151] Top shape: 32 4096 (131072)
I0528 19:10:27.333530   174 net.cpp:159] Memory required for data: 263466752
I0528 19:10:27.333545   174 layer_factory.hpp:77] Creating layer relu6
I0528 19:10:27.333559   174 net.cpp:94] Creating Layer relu6
I0528 19:10:27.333581   174 net.cpp:435] relu6 <- fc6
I0528 19:10:27.333591   174 net.cpp:396] relu6 -> fc6 (in-place)
I0528 19:10:27.333623   174 net.cpp:144] Setting up relu6
I0528 19:10:27.333629   174 net.cpp:151] Top shape: 32 4096 (131072)
I0528 19:10:27.333634   174 net.cpp:159] Memory required for data: 263991040
I0528 19:10:27.333639   174 layer_factory.hpp:77] Creating layer drop6
I0528 19:10:27.333663   174 net.cpp:94] Creating Layer drop6
I0528 19:10:27.333668   174 net.cpp:435] drop6 <- fc6
I0528 19:10:27.333691   174 net.cpp:396] drop6 -> fc6 (in-place)
I0528 19:10:27.333777   174 net.cpp:144] Setting up drop6
I0528 19:10:27.333802   174 net.cpp:151] Top shape: 32 4096 (131072)
I0528 19:10:27.333807   174 net.cpp:159] Memory required for data: 264515328
I0528 19:10:27.333812   174 layer_factory.hpp:77] Creating layer fc7
I0528 19:10:27.333823   174 net.cpp:94] Creating Layer fc7
I0528 19:10:27.333829   174 net.cpp:435] fc7 <- fc6
I0528 19:10:27.333837   174 net.cpp:409] fc7 -> fc7
I0528 19:10:27.519942   174 net.cpp:144] Setting up fc7
I0528 19:10:27.519984   174 net.cpp:151] Top shape: 32 4096 (131072)
I0528 19:10:27.519989   174 net.cpp:159] Memory required for data: 265039616
I0528 19:10:27.520002   174 layer_factory.hpp:77] Creating layer relu7
I0528 19:10:27.520015   174 net.cpp:94] Creating Layer relu7
I0528 19:10:27.520022   174 net.cpp:435] relu7 <- fc7
I0528 19:10:27.520031   174 net.cpp:396] relu7 -> fc7 (in-place)
I0528 19:10:27.520062   174 net.cpp:144] Setting up relu7
I0528 19:10:27.520074   174 net.cpp:151] Top shape: 32 4096 (131072)
I0528 19:10:27.520079   174 net.cpp:159] Memory required for data: 265563904
I0528 19:10:27.520084   174 layer_factory.hpp:77] Creating layer drop7
I0528 19:10:27.520092   174 net.cpp:94] Creating Layer drop7
I0528 19:10:27.520097   174 net.cpp:435] drop7 <- fc7
I0528 19:10:27.520103   174 net.cpp:396] drop7 -> fc7 (in-place)
I0528 19:10:27.520133   174 net.cpp:144] Setting up drop7
I0528 19:10:27.520140   174 net.cpp:151] Top shape: 32 4096 (131072)
I0528 19:10:27.520145   174 net.cpp:159] Memory required for data: 266088192
I0528 19:10:27.520149   174 layer_factory.hpp:77] Creating layer fc8
I0528 19:10:27.520159   174 net.cpp:94] Creating Layer fc8
I0528 19:10:27.520164   174 net.cpp:435] fc8 <- fc7
I0528 19:10:27.520171   174 net.cpp:409] fc8 -> fc8
I0528 19:10:27.520356   174 net.cpp:144] Setting up fc8
I0528 19:10:27.520365   174 net.cpp:151] Top shape: 32 3 (96)
I0528 19:10:27.520370   174 net.cpp:159] Memory required for data: 266088576
I0528 19:10:27.520376   174 layer_factory.hpp:77] Creating layer fc8_fc8_0_split
I0528 19:10:27.520385   174 net.cpp:94] Creating Layer fc8_fc8_0_split
I0528 19:10:27.520390   174 net.cpp:435] fc8_fc8_0_split <- fc8
I0528 19:10:27.520396   174 net.cpp:409] fc8_fc8_0_split -> fc8_fc8_0_split_0
I0528 19:10:27.520433   174 net.cpp:409] fc8_fc8_0_split -> fc8_fc8_0_split_1
I0528 19:10:27.520467   174 net.cpp:144] Setting up fc8_fc8_0_split
I0528 19:10:27.520475   174 net.cpp:151] Top shape: 32 3 (96)
I0528 19:10:27.520480   174 net.cpp:151] Top shape: 32 3 (96)
I0528 19:10:27.520484   174 net.cpp:159] Memory required for data: 266089344
I0528 19:10:27.520489   174 layer_factory.hpp:77] Creating layer accuracy
I0528 19:10:27.520499   174 net.cpp:94] Creating Layer accuracy
I0528 19:10:27.520504   174 net.cpp:435] accuracy <- fc8_fc8_0_split_0
I0528 19:10:27.520510   174 net.cpp:435] accuracy <- label_val-data_1_split_0
I0528 19:10:27.520516   174 net.cpp:409] accuracy -> accuracy
…
